data/model.pt (torch, 355058 bytes, 110 tensors)

token_embedding_table.weight f4 [157, 36]
00000000: 6452 873e 6884 c53d 4aa1 ddbe a2c4 9bbf
00000010: ef82 4a3f 38bc fdbe efcf c13f 2181 37bf
00000020: eb57 e0be 7db6 d23f 22be 66bf de66 94bf
00000030: 5f65 ebbd 381f f2be c42f 83bf 1e53 be3f
00000040: 064a 913f a498 1e3f c9f8 8d3f cc20 253e
00000050: 2137 cabf 7e27 7e3e f760 0440 dcc3 293f
00000060: 3490 ff3e 9ca9 f1bf 7843 b4be 6b30 c9be
00000070: caaf 83bd 375a b0bf 4440 c83f ecd7 3a40
00000080: 41db afbe 97f8 99bc cb61 973f cc57 d9be
00000090: 366a aa3e 2443 af3f 1401 98bf d185 9abe
000000a0: 557c 5c3b fe73 61bf e608 183f ae04 bfbf
000000b0: e731 c1bf deb3 2f3f bfba f0be 2833 51bf
000000c0: 797a ad3f 4ede 5abf 0d23 9c3f 4615 0a3c
000000d0: 588a ccbf 2d3e 1340 edc1 2b40 0a8b d5bf
000000e0: 2732 ad3f fdb3 bfbf 233e 033f add6 69bc
000000f0: e7f3 433f f14b a13f 185f 9c3f 91a9 08bf
00000100: b836 74bf 35b9 973e c2c7 88bd cff3 b0bc
00000110: fe27 a7be 28d9 1f3f ac80 2fbe b77e 69bf
00000120: b2d2 0c40 4e62 a0bf 2508 ad3f 23e7 633f
00000130: 7091 24c0 1c5d 453f 4980 6bbd 0844 883f
00000140: a697 1f40 ae1d 59bf 8fe5 bb3f 83bf 7b3f
00000150: 5411 8ebf 97c4 acbf cacb 8d3f 266e 9fbf
00000160: e530 0b3f 5d3e 1dbf 2011 bd3f ce72 c2bd
00000170: 8229 bf3e 1644 f5bc 5327 10bf c90a abbf
00000180: 77cb 48c0 33cc b0bf 036e 2e3f cf60 513f
00000190: 7c87 0f3f ad44 6dbf b898 52be 4f2e 42bf
000001a0: d709 09be 33e3 6dbe b04a 35bf 6192 993f
000001b0: 7e26 973d 2dca 0240 5ab0 e5be 9bf2 d1bf
000001c0: e204 edbe f760 dcbd 532a 943f 721f c5bf
000001d0: 860c 6b3e d137 103f dfed 13c0 6eb1 4b3f
000001e0: f4af e83f 3d4c 153f 2fd3 123e 162b 2fbf
000001f0: cf9c 11bf fa21 123f e193 5bbf 7120 73bf
00000200: 6770 d4bf 27f5 0d40 52a0 9e3f 13ea 0fbf
00000210: 87f9 d73f ac97 aa3f 5a3e 133d 0aba c3bf
00000220: 8c05 72bc f739 8e3c ba0a 693f 5eaf e63c
00000230: 2979 d4bd b7e2 93bf 24f0 fa3d a720 773f
00000240: 80c2 1140 b410 b63f afd2 cabf 50d7 a4be
00000250: c567 76bd 5c4e 97bd 196c 93bf 5b93 1f3f
00000260: 6054 9abf a224 0fbe 15d0 d73f 27e0 06bf
00000270: 9dbb dabf 5831 9bbf 624f a73f 07ea 2abf
00000280: 732a b3be 3a62 2f3f e2de 53be caba 0e40
00000290: 457c 3dc0 41e5 283f 8757 b6bf 1bc5 213c
000002a0: a298 243d 61be d23f ea24 583e e1e7 8ebe
000002b0: 6b1a a8bf 8c77 a3be 6775 c6bf c7f7 6abf
000002c0: 74b2 7ebd 36da 57bf e398 333f 5195 ba3d
000002d0: 9cdc 363e c58b 383f 3a11 c2bf 59cf 8b3f
000002e0: 8e65 ca3f c294 af3f dbfa 4e3f eb07 aabf
000002f0: 1875 54bf c522 3640 362c 3bbe 1c34 963f
00000300: bdb7 b63e 2bcd 703e 7d42 f23f 3350 d63f
00000310: 5cb4 cd3e 7821 d4be a10a 0ebf a1f2 503f
00000320: d162 ddbd 35f2 cabf c992 ab3f 2f9c b63e
00000330: 2b9b e6bf 4089 5cbf c4a7 b6be 0ef1 99be
00000340: 01cc d43c 91ae 3cbf 89c9 2bbe dd99 68bf
00000350: 3d6a 153f a64b 373f 4bb3 9d3f 308a 923f
00000360: 63be 253f 6632 6f3f 76b6 5abe 6f09 84bf
00000370: 9b89 97bf 0c93 bf3e 40ab 85bf 4184 1bbf
00000380: 3d42 c1be 1480 10bf 6126 b73e ffac fdbc
00000390: e131 19be 528a 363f 895d babc 1c86 983d
000003a0: 5ad3 663f 0535 f6bf 34ce 173f d72e 01c0
000003b0: fa67 7dbf bb50 d5be fc53 76bf f33b 17be
000003c0: 6d2e cd3f 824e 793e 3370 49bf 5348 8bbf
000003d0: 74a4 693f e331 09bf df8e 0e3e 094f 36bf
000003e0: 1aaa 61be 7cd6 063f b3df 3ebf f301 83bf
000003f0: 9592 953f d094 d1bf ad74 25bf d02c 823f
0.26430047 0.09644395 -0.43287116 -1.2169383 0.7910604 -0.49557662 1.5141581 -0.7168141
-0.43817076 1.6461941 -0.9013387 -1.1593893 -0.114939444 -0.47289443 -1.0248952 1.4869115
1.1350715 0.6195166 1.1091548 0.16125792 -1.5798074 0.24819753 2.0684183 0.6631448
0.49914706 -1.8879886 -0.35207725 -0.39294752 -0.064300135 -1.3777531 1.5644612 2.9194288
-0.34346965 -0.018795295 1.1826719 -0.42449796 0.33284158 1.3692365 -1.1875329 -0.3018022
0.0033643444 -0.88067615 0.5938858 -1.4923303 -1.5093354 0.6863383 -0.47017476 -0.81718683
1.3553001 -0.8549546 1.2198197 0.008427924 -1.5979719 2.30067 2.6837113 -1.6683056
1.353093 -1.4976803 0.5126669 -0.014272374 0.7654404 1.26013 1.221652 -0.5338374
-0.95395994 0.2963349 -0.06678726 -0.021600632 -0.326477 0.6244073 -0.17138928 -0.91208977
2.2003598 -1.253 1.351811 0.8902456 -2.5713768 0.770952 -0.05749539 1.0645761
2.493631 -0.8481091 1.4679431 0.983391 -1.1099038 -1.3497494 1.1077816 -1.245549
0.5437148 -0.61423284 1.4770851 -0.094945535 0.37336355 -0.029939692 -0.56310004 -1.3362666
-3.1374185 -1.3812317 0.68136615 0.81788343 0.5606611 -0.92682916 -0.2056607 -0.7585191
-0.1338266 -0.23231201 -0.7081709 1.1997796 0.07380389 2.0435898 -0.44861108 -1.6402162
-0.46292788 -0.10760682 1.1575416 -1.5400221 0.22953996 0.5633517 -2.3113935 0.7956761
1.8178697 0.58319455 0.14338373 -0.6842512 -0.56879896 0.57083094 -0.8577252 -0.94971377
-1.6596802 2.218088 1.2392676 -0.56216544 1.6873025 1.3327537 0.035948135 -1.529115
-0.01477183 0.017361624 0.9103199 0.028159793 -0.10374672 -1.1553563 0.122528344 0.965342
2.2774963 1.4223847 -1.5845546 -0.3219552 -0.060157556 -0.07387993 -1.1517364 0.6233422
-1.2056999 -0.13978818 1.6860377 -0.5268578 -1.7088505 -1.2124434 1.3071101 -0.6676335
-0.34993324 0.68509257 -0.20690492 2.2301507 -2.9607098 0.65974814 -1.4245461 0.009873654
0.040184624 1.6464349 0.21107832 -0.27911285 -1.3133062 -0.31927145 -1.5504578 -0.9178433
-0.062181905 -0.8431734 0.7015516 0.09110511 0.17857593 0.7208827 -1.5161507 1.0922652
1.5812242 1.3717272 0.80851525 -1.3283666 -0.8299117 2.8458722 -0.18278584 1.1734653
0.35687056 0.23515765 1.8926541 1.6743225 0.40176666 -0.41431785 -0.5548497 0.8162022
-0.10809863 -1.5855166 1.340417 0.35666034 -1.8016104 -0.86146927 -0.3567487 -0.30066723
0.025976183 -0.7370387 -0.16776098 -0.90859777 0.5836523 0.71599805 1.2320341 1.1448421
0.6474363 0.93436277 -0.21358666 -1.0315379 -1.1838869 0.37416875 -1.0442886 -0.6074868
-0.37745848 -0.5644543 0.35771468 -0.03096628 -0.14960434 0.7130481 -0.02274968 0.07447454
0.90166247 -1.923493 0.59299016 -2.0184839 -0.9898678 -0.41663155 -0.962219 -0.14768963
1.6029793 0.24346355 -0.7868683 -1.0881447 0.9126656 -0.53591746 0.13921688 -0.7121435
-0.22037545 0.5267103 -0.7456009 -1.023497 1.1685358 -1.6373539 -0.6463116 1.0169926

position_embedding_table.weight f4 [16, 36]
00000000: 2d9a 2b3f 6ad8 9bbf c4a9 41bf b4f6 50bf
00000010: 46cc 863f 084d 19bf 3d40 6d3e 2923 cc3e
00000020: 9826 2a3f d1f5 0340 eaaf 80be 063f eabf
00000030: 0e10 2dbf 5bdc f0be 9e7f ebbe 18ed febb
00000040: c779 1bbf 6d3d 43bc 3197 f6bf 8685 54bf
00000050: 01bd 593f 6b7d 4fbe 542d 5ec0 d3a7 32bf
00000060: cac7 e43f 4b00 8dbf a410 a2be 71f6 0abf
00000070: a1f4 ac3f a9ec 7abf 0e39 5c3f 142e 593f
00000080: bcf9 033f fa40 07bf 6fb2 46bf b236 383f
00000090: eaf5 89be 394e 023f 02aa 90be 01dc 40bf
000000a0: a0da e13f 6d92 babf 8435 4bbf 7a2b 6abf
000000b0: ac50 593d 0c1d a83e f2bb 1abd 43df 833f
000000c0: 7af6 333f 4e18 bdbe 152b 78bf 5bbf 97be
000000d0: aa6f aabe 2d6d 8cbf 0b47 9abf 8a83 aa3f
000000e0: bc2e a23e 8577 adbc a6f7 3cbf 38d4 1ebf
000000f0: 6f2e aabf efd7 05bf 3131 adbf c11e 003f
00000100: a7c4 333f c05d d4bf 9261 f8bc 38b5 dc3c
00000110: 2640 b0bf b309 8fbf 39ac ef3f 4692 3e3f
00000120: 5f9d 22bf 6c1a afbd 3468 3dbf 435a 333f
00000130: ef61 78bf d120 37bf 9ace 87bf 79cc e8be
00000140: 12a8 fcbe 20cb 2dbf bf60 ccbf 3e13 6d3f
00000150: 89d8 aebe 6edf e03f 6f74 573f 4e6c 7a3e
00000160: 162b 75bf 8094 2a3d b437 4c3f 9e4c 443f
00000170: 3397 fcbe e817 2cbf 5fd0 a83d 4a35 3cbf
00000180: d7cf 91be 5181 1ec0 5f81 5bbf ea5c 523e
00000190: 41df 993f 2b85 a2bd 6a5d 87bf 1102 dd3b
000001a0: 37c3 b5bf 44ac 4f3e 9ebf 313f 61f3 093f
000001b0: 75f9 d5be 7d4f 42bf b4aa 0bbe 937a 97be
000001c0: 510f 1d3f f39f a8be 530d 50be 64c5 84bf
000001d0: 9ef9 fdbe b5fb 81bf 57cc 773f 5882 b03f
000001e0: f1e5 83bf 0827 fa3f 5305 0e3f bb10 65be
000001f0: 9a33 c4bf 5521 53bc a459 493f 04fc b3bd
00000200: 96d1 a03d 758c 30bd 1313 583f 9a4d e83e
00000210: fc4b 213f b254 c4bf 6337 b53d 9dc0 08be
00000220: ebf7 163f 9094 9b3f cc56 2bbf e7bb 46bf
00000230: 4897 36bf 5a18 54be b766 00be a1e1 943c
00000240: b31a 10bf 25d9 f6be 6942 91bf e2b1 ac3f
00000250: 789a 15bf 79ce 643f 7c2a 213f 11fe 86bf
00000260: e0eb 5bbe 7343 4d3f e0d0 0d40 21c4 2c3f
00000270: f513 c5bf 1dad be3f f090 82bf 6bb6 0b3f
00000280: a951 3abf 0994 153f fd39 453f cbc6 023f
00000290: 2cd6 913f 9552 b0be 66c0 52bf a4c3 adbf
000002a0: 80dd 3b3f 1c49 893f 4d01 603e 4d40 63be
000002b0: de85 2b3f ac24 6eba 5d84 0a3f 85eb 00bf
000002c0: cb3a 9abf 0929 ff3d 9eae 2b3f ff5b a73d
000002d0: 4568 1bbe 8b18 8dbd fe0a 21bf f511 cdbc
000002e0: 8714 973f de9e e2be 30e6 0dbf c125 343f
000002f0: 4458 91bf 9ed6 323e 8f7b 30bf 3c6b 643f
00000300: 6936 cd3f b032 5dbf 9b33 773e f077 423e
00000310: 9c62 bc3f c562 cdbf bf80 2e3f 1e23 2d3e
00000320: ae4f 6cbf 9f85 483f 1fa2 9dbd e18a f8be
00000330: 60ad 4a3f a47c a0bf a5d4 983d ea95 9dbf
00000340: 98ec ef3e 9545 ed3e f08f 33bf 9328 f4be
00000350: 8ef9 fa3f aa24 d53e 8748 9f3f c80d 953f
00000360: a1cf f4bd 548c 4f3f 90bb eebc ed47 8ebf
00000370: e74d 583f a067 9c3f 9d92 9c3f 79b0 90bf
00000380: 41c6 edbd d8c9 ca3e 6635 df3f b9b9 d63e
00000390: b806 b23e 98df 06bf 75b3 7abe 7ade 80be
000003a0: 06bd 7fbf 5630 cabe 1c93 bbbf 7b6c 233f
000003b0: 6a50 7d3e b79a 143f ae95 5b3f c0a2 c7bd
000003c0: 9b29 6f3f 1754 303f 0513 0cbf 10ee 233f
000003d0: f03c c4be e9c6 ab3f d507 533e ba34 6e3f
000003e0: 226e 90bf 2c55 953e cf8a b6bf f943 41bf
000003f0: 07bc ed3e 7008 453e 9c72 833f 8e9a c83f
0.6703213 -1.2175419 -0.75649667 -0.8162644 1.0531089 -0.59883165 0.23169036 0.39870575
0.6646514 2.0618784 -0.25134212 -1.8300483 -0.6760262 -0.47043118 -0.45995802 -0.0077797286
-0.6073269 -0.0119165005 -1.926489 -0.8301624 0.8505402 -0.20262687 -3.4715166 -0.6978733
1.7873471 -1.1015714 -0.3165332 -0.5428229 1.3512155 -0.98017365 0.8602456 0.84835935
0.5155294 -0.5283352 -0.7761602 0.7195846 -0.2694543 0.5090061 -0.28254706 -0.753357
1.7644844 -1.4575936 -0.79378533 -0.9147259 0.05305545 0.3283466 -0.037776895 1.0302509
0.7029797 -0.36932606 -0.9694074 -0.2963818 -0.33288318 -1.0970818 -1.205293 1.3321393
0.3167628 -0.021175155 -0.7381538 -0.6204257 -1.329542 -0.52282614 -1.3530637 0.50046927
0.7022194 -1.659111 -0.030319963 0.02694188 -1.3769577 -1.1174835 1.8724433 0.74441946
-0.6352138 -0.085499614 -0.73987126 0.70059603 -0.97024435 -0.7153445 -1.0609925 -0.454685
-0.49346977 -0.6788807 -1.5967025 0.92607486 -0.34149578 1.7568185 0.8416204 0.24455377
-0.9576887 0.041645527 0.79772496 0.7667941 -0.49334106 -0.6722398 0.08242869 -0.7351881
-0.28478882 -2.4766428 -0.8574428 0.20543256 1.2021257 -0.07935556 -1.0575383 0.006744631
-1.42002 0.20280558 0.6943301 0.5388699 -0.41791883 -0.7590254 -0.13639337 -0.29585704
0.61351496 -0.32934532 -0.20317583 -1.0372739 -0.49604505 -1.015494 0.9679617 1.3789778
-1.0304548 1.9543161 0.55476874 -0.22369663 -1.5328248 -0.012886365 0.78652406 -0.087883025
0.07852475 -0.0431027 0.84404105 0.45371705 0.6300657 -1.5338347 0.08848455 -0.13354726
0.5897204 1.2154713 -0.66929317 -0.77630466 -0.71324587 -0.20712414 -0.12539183 0.018173994
-0.5629074 -0.48212543 -1.1348392 1.3491786 -0.58438826 0.8937755 0.6295545 -1.0546285
-0.21476698 0.80181044 2.2158737 0.6748677 -1.5396715 1.489658 -1.0200481 0.5457522
-0.72780854 0.5842901 0.7704161 0.51084584 1.1393485 -0.34438005 -0.82324827 -1.357533
0.7338486 1.0725436 0.21875496 -0.22192498 0.6700114 -0.0009084444 0.5410822 -0.50359374
-1.2049192 0.12458999 0.6706332 0.08171844 -0.15176494 -0.06889447 -0.629074 -0.025032977
1.180314 -0.4426183 -0.55429363 0.7037011 -1.1355062 0.17464682 -0.68938535 0.89226127
1.603223 -0.8640547 0.2414078 0.18991065 1.4717593 -1.6045767 0.681652 0.16907927
-0.9230908 0.7832889 -0.07696938 -0.48543456 0.791708 -1.2538037 0.07462434 -1.2311375
0.46860194 0.4634215 -0.70141506 -0.47687206 1.9607408 0.41629535 1.2444009 1.1644831
-0.119536646 0.810735 -0.029142171 -1.11157 0.8449387 1.2219124 1.2232243 -1.1303855
-0.116100796 0.3960712 1.7438171 0.4193857 0.3477075 -0.52684927 -0.2448252 -0.25169736
-0.998978 -0.39490002 -1.4654269 0.63837403 0.24737707 0.58048576 0.8577527 -0.09747839
0.9342286 0.6887831 -0.5471652 0.6403513 -0.38327742 1.3420078 0.20608456 0.93049204
-1.128361 0.29166543 -1.4261111 -0.75494343 0.46432516 0.192415 1.0269351 1.5672166

blocks.0.sa.heads.0.tril f4 [16, 16]
00000000: 0000 803f 0000 0000 0000 0000 0000 0000
00000010: 0000 0000 0000 0000 0000 0000 0000 0000
00000020: 0000 0000 0000 0000 0000 0000 0000 0000
00000030: 0000 0000 0000 0000 0000 0000 0000 0000
00000040: 0000 803f 0000 803f 0000 0000 0000 0000
00000050: 0000 0000 0000 0000 0000 0000 0000 0000
00000060: 0000 0000 0000 0000 0000 0000 0000 0000
00000070: 0000 0000 0000 0000 0000 0000 0000 0000
00000080: 0000 803f 0000 803f 0000 803f 0000 0000
00000090: 0000 0000 0000 0000 0000 0000 0000 0000
000000a0: 0000 0000 0000 0000 0000 0000 0000 0000
000000b0: 0000 0000 0000 0000 0000 0000 0000 0000
000000c0: 0000 803f 0000 803f 0000 803f 0000 803f
000000d0: 0000 0000 0000 0000 0000 0000 0000 0000
000000e0: 0000 0000 0000 0000 0000 0000 0000 0000
000000f0: 0000 0000 0000 0000 0000 0000 0000 0000
00000100: 0000 803f 0000 803f 0000 803f 0000 803f
00000110: 0000 803f 0000 0000 0000 0000 0000 0000
00000120: 0000 0000 0000 0000 0000 0000 0000 0000
00000130: 0000 0000 0000 0000 0000 0000 0000 0000
00000140: 0000 803f 0000 803f 0000 803f 0000 803f
00000150: 0000 803f 0000 803f 0000 0000 0000 0000
00000160: 0000 0000 0000 0000 0000 0000 0000 0000
00000170: 0000 0000 0000 0000 0000 0000 0000 0000
00000180: 0000 803f 0000 803f 0000 803f 0000 803f
00000190: 0000 803f 0000 803f 0000 803f 0000 0000
000001a0: 0000 0000 0000 0000 0000 0000 0000 0000
000001b0: 0000 0000 0000 0000 0000 0000 0000 0000
000001c0: 0000 803f 0000 803f 0000 803f 0000 803f
000001d0: 0000 803f 0000 803f 0000 803f 0000 803f
000001e0: 0000 0000 0000 0000 0000 0000 0000 0000
000001f0: 0000 0000 0000 0000 0000 0000 0000 0000
00000200: 0000 803f 0000 803f 0000 803f 0000 803f
00000210: 0000 803f 0000 803f 0000 803f 0000 803f
00000220: 0000 803f 0000 0000 0000 0000 0000 0000
00000230: 0000 0000 0000 0000 0000 0000 0000 0000
00000240: 0000 803f 0000 803f 0000 803f 0000 803f
00000250: 0000 803f 0000 803f 0000 803f 0000 803f
00000260: 0000 803f 0000 803f 0000 0000 0000 0000
00000270: 0000 0000 0000 0000 0000 0000 0000 0000
00000280: 0000 803f 0000 803f 0000 803f 0000 803f
00000290: 0000 803f 0000 803f 0000 803f 0000 803f
000002a0: 0000 803f 0000 803f 0000 803f 0000 0000
000002b0: 0000 0000 0000 0000 0000 0000 0000 0000
000002c0: 0000 803f 0000 803f 0000 803f 0000 803f
000002d0: 0000 803f 0000 803f 0000 803f 0000 803f
000002e0: 0000 803f 0000 803f 0000 803f 0000 803f
000002f0: 0000 0000 0000 0000 0000 0000 0000 0000
00000300: 0000 803f 0000 803f 0000 803f 0000 803f
00000310: 0000 803f 0000 803f 0000 803f 0000 803f
00000320: 0000 803f 0000 803f 0000 803f 0000 803f
00000330: 0000 803f 0000 0000 0000 0000 0000 0000
00000340: 0000 803f 0000 803f 0000 803f 0000 803f
00000350: 0000 803f 0000 803f 0000 803f 0000 803f
00000360: 0000 803f 0000 803f 0000 803f 0000 803f
00000370: 0000 803f 0000 803f 0000 0000 0000 0000
00000380: 0000 803f 0000 803f 0000 803f 0000 803f
00000390: 0000 803f 0000 803f 0000 803f 0000 803f
000003a0: 0000 803f 0000 803f 0000 803f 0000 803f
000003b0: 0000 803f 0000 803f 0000 803f 0000 0000
000003c0: 0000 803f 0000 803f 0000 803f 0000 803f
000003d0: 0000 803f 0000 803f 0000 803f 0000 803f
000003e0: 0000 803f 0000 803f 0000 803f 0000 803f
000003f0: 0000 803f 0000 803f 0000 803f 0000 803f
1.0 0.0 0.0 0.0 0.0 0.0 0.0 0.0
0.0 0.0 0.0 0.0 0.0 0.0 0.0 0.0
1.0 1.0 0.0 0.0 0.0 0.0 0.0 0.0
0.0 0.0 0.0 0.0 0.0 0.0 0.0 0.0
1.0 1.0 1.0 0.0 0.0 0.0 0.0 0.0
0.0 0.0 0.0 0.0 0.0 0.0 0.0 0.0
1.0 1.0 1.0 1.0 0.0 0.0 0.0 0.0
0.0 0.0 0.0 0.0 0.0 0.0 0.0 0.0
1.0 1.0 1.0 1.0 1.0 0.0 0.0 0.0
0.0 0.0 0.0 0.0 0.0 0.0 0.0 0.0
1.0 1.0 1.0 1.0 1.0 1.0 0.0 0.0
0.0 0.0 0.0 0.0 0.0 0.0 0.0 0.0
1.0 1.0 1.0 1.0 1.0 1.0 1.0 0.0
0.0 0.0 0.0 0.0 0.0 0.0 0.0 0.0
1.0 1.0 1.0 1.0 1.0 1.0 1.0 1.0
0.0 0.0 0.0 0.0 0.0 0.0 0.0 0.0
1.0 1.0 1.0 1.0 1.0 1.0 1.0 1.0
1.0 0.0 0.0 0.0 0.0 0.0 0.0 0.0
1.0 1.0 1.0 1.0 1.0 1.0 1.0 1.0
1.0 1.0 0.0 0.0 0.0 0.0 0.0 0.0
1.0 1.0 1.0 1.0 1.0 1.0 1.0 1.0
1.0 1.0 1.0 0.0 0.0 0.0 0.0 0.0
1.0 1.0 1.0 1.0 1.0 1.0 1.0 1.0
1.0 1.0 1.0 1.0 0.0 0.0 0.0 0.0
1.0 1.0 1.0 1.0 1.0 1.0 1.0 1.0
1.0 1.0 1.0 1.0 1.0 0.0 0.0 0.0
1.0 1.0 1.0 1.0 1.0 1.0 1.0 1.0
1.0 1.0 1.0 1.0 1.0 1.0 0.0 0.0
1.0 1.0 1.0 1.0 1.0 1.0 1.0 1.0
1.0 1.0 1.0 1.0 1.0 1.0 1.0 0.0
1.0 1.0 1.0 1.0 1.0 1.0 1.0 1.0
1.0 1.0 1.0 1.0 1.0 1.0 1.0 1.0

blocks.0.sa.heads.0.key.weight f4 [9, 36]
00000000: a12e 4e3e d217 5a3e 89d3 61be fc40 83bd
00000010: 196f 5c3e 3b3a 913c 0ee6 dfbd 824c d73e
00000020: 5cc9 88bd 01c5 d93d fae5 02bf 8b97 3a3e
00000030: 48b9 6c3e 6476 86be 39b6 c13e 14e6 d13e
00000040: cd61 673e 3646 fd3d 1cd6 863c a404 1e3e
00000050: 70cf 93be a9d8 713e d2c1 6bbe f2c8 16bc
00000060: b757 2dbe 7847 41be 176d 93be 990b 68bc
00000070: cb81 f23d f925 913e f3d0 b6be ebfa f63d
00000080: cb28 8ebd d3a0 38be de56 d43e 46b1 043d
00000090: 8016 883e d2bc 82bc 5fb1 cdbb 0599 443e
000000a0: eb92 813e ae71 ae3d cbd8 92be fe50 c0bc
000000b0: 5610 c3bd 50e0 ebbc 6a7e c03d eb44 85be
000000c0: 931f 473e 16ca fd3d a49b 463e 05c0 45bd
000000d0: 38ca 2abe 16a5 1fbe 4767 5b3e 433a 06be
000000e0: 47de b1be 92f1 513e 8cc6 66bd 2e3d 6fbe
000000f0: b579 59bd 4a80 f5be 5a66 503e 6111 8f3e
00000100: 389d c43e 1d63 923e b4ed 11bf 4736 163e
00000110: 06b9 bdbc c2f4 9a3c 7366 4b3d 5df3 053d
00000120: c79f 4ebe 056e 33be c810 793e fb7d 8ebe
00000130: 3f79 003f c42b 85be 73a9 e5be a5c3 34be
00000140: c302 303d 1e32 9fbe dff8 f93e 246c b73d
00000150: 0ac5 fabd 77ca 893e f6f8 acbe 59a5 7a3c
00000160: d83b d2be 2374 1d3d b676 7c3d 836d ecbc
00000170: 8d9a 543b a5aa 7a3d b904 043f 3b03 833d
00000180: 7c4d ab3c 5b70 043e 125f 333e e031 b33d
00000190: 14b1 dabe 30d4 5cbe eff2 ab3d 80f2 0abc
000001a0: 5990 893e b501 c6bd 4a00 a23d d9e9 773e
000001b0: 9140 53be aa80 38be e98f 57be 084a bbbd
000001c0: 6f92 e53d 83f1 03be 2913 08be d6b2 82be
000001d0: 8e0c a9bd 723f 68bd ea1c 68bd 4aeb 823e
000001e0: d17e 0f3e 8fb9 173e 16be cf3e 5414 9c3e
000001f0: a7b7 bebe 2305 bd3c b900 dc3d 2dbd 6c3e
00000200: 2eeb 1d3d 2415 223e 350f 47bd a814 17bf
00000210: 88d2 653d 8834 8cbe 2b6b a13d 3145 c7bd
00000220: 0dfd 053f 34d9 ee3c f136 933d f0a3 07be
00000230: d9bd 43be f0b1 ddbb 5579 b03d efb5 0c3e
00000240: 4c4c d03e d125 443e e64a 873e 8e6c dcbe
00000250: cab9 fc3d 65b9 09bf 1146 2f3e 54e5 503e
00000260: 673b 09be 581f f53e a44b 9fbb 7c59 80be
00000270: ae7f 5abd 8a38 b13d d0fd f2bd 40a1 9fbe
00000280: d2a2 42be e67a 3cbe 9e7f 3cbe d33f 383d
00000290: df42 113e 01e4 923d a58c 1f3d d3dd a83e
000002a0: f266 233e dd39 1d3e 0581 20be f207 813e
000002b0: 1fc4 06bd bcca 053e b24f 22be 4463 79bd
000002c0: e793 e5bd 6e0f 03be 48d9 d33e 355f 323f
000002d0: 4df4 da3e d372 043e 254c 84be ab33 88bc
000002e0: 4b4e ca3d d7f5 643e 4733 923a 659f 003e
000002f0: 2295 863c 0ceb e9be aebb 1bbd 3920 6e3d
00000300: 7ad2 a7bd 7e84 d3be db1f 9abc 154a c9be
00000310: 057d 043e 4183 d33d 40a2 0e3e 67c8 2c3e
00000320: ae5e 8abe b9a0 e33e 47eb e13b 2c9f 70be
00000330: 3894 c1bb c49b ee3c cef8 8ebe b5e4 0d3e
00000340: 6f53 ccbe 4f6f e53e 71ed e53e 8b64 e13e
00000350: 66a7 9bbe 2b3c da3e bdb5 07be c029 d6be
00000360: 67ba a23d 3a32 b03e c81e ba3d f445 88be
00000370: 7e2a c4bc 2def 5bbe 2d81 87be c08f 263d
00000380: c0dc cb3e efcd 5abe 7b72 0cbf 1688 15bd
00000390: 7967 b73e 50b8 9cbd 29cb dc3e c165 8dbd
000003a0: ea9c 363e 1379 90bd 25d8 88bd 939f 27be
000003b0: 198c 44be 7b5f e9bd 5438 fd3e 547d 253c
000003c0: 1de1 1c3c a64e aebe eec4 433e 85d4 2f3e
000003d0: 0445 f03d b0cf 6ebd 1a33 32be 22b3 ca3d
000003e0: 03ff 9e3e ee71 a23e 1544 fbbe e299 2cbe
000003f0: 9a72 173e 72e5 b13e fd89 4cbd e4a8 773e
0.20134975 0.21298149 -0.2205335 -0.06408879 0.21526755 0.017727962 -0.10932551 0.42050558
-0.06679031 0.10633279 -0.51132166 0.18221872 0.23117554 -0.262622 0.37834337 0.40995848
0.22595902 0.12366907 0.016459517 0.15431458 -0.288692 0.23617806 -0.23023155 -0.0092031825
-0.16927992 -0.1887492 -0.28794166 -0.014162921 0.11841162 0.28349283 -0.3570629 0.120595776
-0.069413744 -0.180301 0.41472524 0.032395624 0.26579666 -0.015959177 -0.006277248 0.19198997
0.25307402 0.085177764 -0.28681025 -0.02347612 -0.095246 -0.028793484 0.093991116 -0.26029143
0.19445638 0.123920605 0.1939531 -0.048278827 -0.16678703 -0.15590319 0.21426116 -0.13108163
-0.34739897 0.20502308 -0.056341693 -0.23363182 -0.053094584 -0.4794944 0.20351544 0.27942947
0.38401198 0.28591242 -0.5700333 0.14669143 -0.023159515 0.018915538 0.04965825 0.032702792
-0.20178138 -0.17522438 0.24322808 -0.2783049 0.50185007 -0.26009953 -0.44855842 -0.17652757
0.042971384 -0.31092924 0.48822686 0.08956173 -0.122446135 0.2691228 -0.33783692 0.015298211
-0.41061282 0.038440835 0.06163665 -0.028860813 0.0032440752 0.061197896 0.51569706 0.063971005
0.02091097 0.12933485 0.17516735 0.08749747 -0.42713225 -0.21565318 0.08395945 -0.008480668
0.2686794 -0.09668294 0.079102114 0.242103 -0.20630099 -0.18017831 -0.21050991 -0.0914498
0.112095706 -0.12885098 -0.13288559 -0.25527066 -0.08254348 -0.05670113 -0.0566682 0.25570136
0.1401322 0.14816879 0.40574712 0.3048426 -0.3724949 0.023073738 0.10742325 0.2311904
0.038554363 0.15828377 -0.048598487 -0.59015894 0.05610898 -0.27383828 0.07881769 -0.09729994
0.5233925 0.029156305 0.071882136 -0.13246131 -0.1911539 -0.0067655966 0.08616892 0.13741277
0.4068321 0.19155051 0.2642433 -0.4305157 0.12340124 -0.53798515 0.17116572 0.20399982
-0.13401566 0.47875476 -0.004861312 -0.2506827 -0.05334442 0.08653362 -0.11864817 -0.3117771
-0.19007424 -0.18406257 -0.18408057 0.044982743 0.14185666 0.071723945 0.03895249 0.32981738
0.1595724 0.15354104 -0.15674217 0.25201374 -0.03290188 0.13065618 -0.15850714 -0.060885683
-0.11209851 -0.12798855 0.4137671 0.69676524 0.42764512 0.12934427 -0.25839344 -0.0166262
0.098782144 0.22359405 0.0011154198 0.12560804 0.016428534 -0.4568714 -0.038020782 0.0581362
-0.08194442 -0.4131202 -0.018814018 -0.39314333 0.12938316 0.10327769 0.13929081 0.16873322
-0.2702536 0.4445856 0.0068945023 -0.23498219 -0.0059075616 0.02912701 -0.27924198 0.13856776
-0.39907405 0.44811484 0.44907716 0.4402202 -0.30401152 0.4262403 -0.13252921 -0.41828728
0.0794571 0.3441332 0.09087902 -0.2661587 -0.023946043 -0.21477957 -0.2646574 0.040664434
0.39816856 -0.2136762 -0.54862183 -0.036506735 0.3582113 -0.07652342 0.4312375 -0.06904174
0.17833295 -0.07054343 -0.06681851 -0.16369466 -0.19194068 -0.113951646 0.49457037 0.010100681
0.009575156 -0.3404438 0.19118091 0.17170914 0.11731914 -0.058303535 -0.17402306 0.09897448
0.31053934 0.31727546 -0.4907538 -0.16855577 0.14789811 0.34745365 -0.049936283 0.2418552

blocks.0.sa.heads.0.query.weight f4 [9, 36]
00000000: 9cfd 4e3e 412f 853d d54b 6e3e e24f edbd
00000010: 6517 e03d 67eb 5d3e dd41 853e 46ec 2cbd
00000020: ef6d 003e 585c 88be 8804 7a3e d72a 52be
00000030: 4202 4fbe 6378 183e 47a1 a13e 5c0e 12be
00000040: f800 8cbe 61f0 a03d 7123 20be 3a0a bcbc
00000050: af40 c6bd 2a1b 913e 2820 733e 5483 56bd
00000060: 2c37 f83c 40b2 b8be 7241 993d 66d4 ba3e
00000070: e431 eabd 0b39 303e 06fa edbd 0310 683e
00000080: b68c e0bd c9ce 2cbd 0392 d6be 9c35 133e
00000090: db8d a4bd ef22 9dbb 9f26 063f 174b d4be
000000a0: c5e8 b93d 4183 71be 4211 16be 3cbb ccbd
000000b0: c43a 67be bb32 7ebe 224b ea3e 8184 9dbe
000000c0: d4ec afbe a657 bf3d d136 55bd bdbc b13d
000000d0: cea5 a4be 2332 b23d 36e0 11be db55 943e
000000e0: f4c0 5e3d 1268 e9bd 290b e43e f8b7 43be
000000f0: 08a1 c23e a597 bbbc df5d 8b3d e375 7cbd
00000100: 55aa 923e e0c2 8bbe ca7a c1bd e9a3 9fbd
00000110: 75ab 453e 8ac5 13be cb48 92bd 20a2 143d
00000120: 6a57 f7be 1f4e b83d c3de 35be 3ee6 283f
00000130: db0b fabe 3ba1 363e f787 0c3e a07d 24bd
00000140: 0173 83be b241 723d 9083 d0bd c64f 6d3e
00000150: 07a1 31bd 0280 cf3d b2fd 803e c972 b83e
00000160: 5ad3 a43a 0b3c fb3d cbed 6b3d 3224 4e3e
00000170: cca4 863d 86bb 73be 4fa6 60be 71b8 78be
00000180: a796 283e bb8f 9a3e 8a82 ecbd 26e3 b0be
00000190: 0272 cd3e f5eb 80be 3024 eabc b9bd 21be
000001a0: da67 343e d2d2 143d 30ea 16be dfd4 01be
000001b0: c03b 28be 14f6 36be 1324 13be 3761 abbc
000001c0: d563 253e 4a50 813d 1a23 08bc b09a e0be
000001d0: 290e 0abe 25f3 aabe bac7 a53e e083 a53e
000001e0: 242e 2abe 8f63 603e 4fce f63d 48c5 4dbd
000001f0: 8f23 58be cdf8 a33e 5d2f b63e bdab fcbd
00000200: 40e0 04be 9d5a 2bbe bb72 7c3e 8b9a b9bc
00000210: ffbb 313d 8b77 cebd 4751 f73e dc65 d13d
00000220: 0630 b4bd 082c 1bbe 00c3 c33d 46a5 e03d
00000230: ac32 8a3e 31ac b13e 52fd f13d 18a3 46be
00000240: 7532 003e b07c 253f 2533 f93e c8fd 0e3e
00000250: 05e6 c2be b92c b8bc c024 ca3d cb86 9c3c
00000260: 192b ad3e 25c4 a0be 3e55 00bf 792d e6bd
00000270: 3b48 2dbe cf12 39be f6cf b43d 48bc 883e
00000280: e8a7 153e c5d5 e63e e695 3b3d 1c7d bb3d
00000290: 5ecd 113e 3eab 65be 45d1 dd3d a5a0 a1bd
000002a0: bd67 aabb e6be 5ebe f249 9fbe 9277 7a3e
000002b0: 5d30 0e3e 81a0 5bbe 6e01 ca3d 66e5 d63e
000002c0: 9ed5 70be 0cc8 a73e a4ac 963d 4dc6 acbe
000002d0: a0e0 ad3e 9cd1 92bd afaf 7d3d 75d8 fc3d
000002e0: a178 f23e 679d c6bd 22b1 883d f937 94bd
000002f0: ce91 1c3b b8b3 cc3d 2922 09be 5486 2fbe
00000300: 3394 abbe 4268 1f3e b7a2 29be 9b87 aa3d
00000310: 0e44 3cbf a8df ac3b f153 e03b 3bb3 9dbd
00000320: 0539 a5bd 3f4f 583e cf14 eebe 363c 91bd
00000330: 4943 a13d a0fd 0abe 1ae6 40be 3808 083e
00000340: d217 01be cc4d e63d 4704 d63e b5f3 96be
00000350: 01f3 f73d 0a24 9cbe 7783 0c3d 9a28 a93e
00000360: 3217 72bd 867a 32be ba41 a83e 9a57 653d
00000370: 3b74 a9be 5860 d53d 433a 363e 1b2a 22be
00000380: eb52 60be 29a4 aa3d 5324 d83e ac5e 303e
00000390: 2a46 e3bd e3ae 4a3e 1aef aebe c453 e1bd
000003a0: 33b2 5dbe 4df5 d7bb f61f 8ebe 9515 273e
000003b0: 08a5 61bd eb7a aabe e5da d03c fbc0 e23e
000003c0: ad96 783e 2e5b 663c d1e9 09be 2ff0 c03b
000003d0: 4cd6 d7bd f595 a03e 8227 3e3d 43c4 3f3e
000003e0: 5322 9abd 6c05 91bd 81db 653c eaa9 3d3e
000003f0: 9c34 843e 7541 11bc 9433 d73e 4c0f c3be
0.20213932 0.065031536 0.23271115 -0.11587502 0.10941962 0.2167183 0.26026812 -0.042217515
0.12541936 -0.26632953 0.24415791 -0.20524155 -0.20215705 0.14889674 0.31568357 -0.1426329
-0.2734449 0.07858349 -0.1563852 -0.022954095 -0.09680306 0.28341037 0.23742735 -0.052371338
0.030299746 -0.36073494 0.07483186 0.36490172 -0.11435297 0.1720926 -0.11619954 0.22662358
-0.109643385 -0.042189393 -0.41908273 0.14375919 -0.08034869 -0.004795424 0.5240268 -0.4146354
0.090776004 -0.23585226 -0.14655021 -0.099966496 -0.22581011 -0.2482404 0.45760447 -0.30765155
-0.34360373 0.093428895 -0.05205423 0.08678577 -0.3215775 0.08700969 -0.14245686 0.28971753
0.054383233 -0.11396803 0.44539765 -0.19113147 0.38013482 -0.022899458 0.06805014 -0.061635863
0.28645578 -0.27297115 -0.09447248 -0.07794935 0.19303687 -0.14430824 -0.071427904 0.036287427
-0.4830888 0.089992754 -0.17760758 0.6597632 -0.4883717 0.17834942 0.13723741 -0.040158868
-0.2567368 0.059144683 -0.101813436 0.23174962 -0.04336646 0.101318374 0.25193554 0.36025074
0.0012575195 0.12267312 0.057599824 0.20130995 0.06574401 -0.23802003 -0.21938442 -0.24289109
0.1646372 0.30187783 -0.11548336 -0.345483 0.40126044 -0.2518002 -0.028581709 -0.1579503
0.17617741 0.036333866 -0.14737773 -0.1267886 -0.16429043 -0.17867309 -0.1436923 -0.02092038
0.16151364 0.06314142 -0.00830915 -0.43868017 -0.13481964 -0.3338863 0.32378942 0.32327175
-0.16619164 0.21912979 0.12051069 -0.05023697 -0.21107315 0.32025757 0.3558301 -0.12337444
-0.1297617 -0.16733785 0.24653141 -0.0226567 0.043392178 -0.10081395 0.48304197 0.10224506
-0.08798222 -0.15153515 0.09558678 0.109690234 0.26991785 0.34701684 0.11815895 -0.19398153
0.12519248 0.64643383 0.48671833 0.13963997 -0.38066116 -0.022482263 0.09870291 0.019107243
0.33821943 -0.31399646 -0.5013007 -0.11239142 -0.16922085 -0.18073581 0.08828728 0.26706147
0.14614832 0.45084968 0.04579725 0.09154722 0.14238498 -0.22428605 0.108309306 -0.07891969
-0.005200355 -0.2175251 -0.31111103 0.24459675 0.13885637 -0.21447946 0.09863554 0.41971892
-0.23518988 0.3276981 0.07357147 -0.3374504 0.33960438 -0.07168886 0.061935123 0.123459734
0.47357658 -0.09697991 0.066744104 -0.072372384 0.0023890617 0.09995216 -0.13391937 -0.17141086
-0.33511505 0.15567115 -0.16565977 0.08326646 -0.73541343 0.0052756853 0.006845944 -0.07700201
-0.08067516 0.2112398 -0.4650025 -0.070915624 0.07874162 -0.13573313 -0.18837777 0.13284385
-0.12606743 0.11245307 0.41800138 -0.2948281 0.12106896 -0.30496246 0.034305062 0.3303879
-0.059104152 -0.17429551 0.32862645 0.055991746 -0.3309649 0.10418767 0.17795663 -0.15836374
-0.2190663 0.08332092 0.42215213 0.17223614 -0.11097367 0.19793276 -0.34166795 -0.11002305
-0.21650009 -0.0065905214 -0.2775876 0.16316827 -0.055089027 -0.33296904 0.025495002 0.44287857
0.24276228 0.014059825 -0.134681 0.005888007 -0.10538921 0.31364408 0.046424396 0.18727212
-0.07526078 -0.07081112 0.014029385 0.18521848 0.25821388 -0.008865704 0.42031538 -0.38097608

blocks.0.sa.heads.0.value.weight f4 [9, 36]
00000000: e6b2 183b f47f 0abe ee03 c03d cf1e 16bb
00000010: c66d 87bb e873 513d bd2a 47be 43a4 1a3e
00000020: b7aa da3c 1fa7 813c 46f8 cb3c 1c28 fc3d
00000030: d251 253c d44d 34bd 71d4 b23c 32c0 e0bc
00000040: 15fd 44bd 60a2 d5bd b009 f4bc 6344 453d
00000050: 9dbc 173d c62a a03d 9da1 1a3d a9e5 c43b
00000060: e770 bd3c 8a53 6f3d c325 a2bd ade8 103b
00000070: c436 bdbc 9cb8 fe3c 170b 87bd cfe6 00bd
00000080: ac2e fbbd 63d9 05be d13e 69be 0809 fc3d
00000090: 3234 ebbc cbf1 75bd 82bb b5bd af96 703e
000000a0: b936 8ebd 2d06 6e3d e97f 7e3d c1c7 b8bc
000000b0: 4885 5c3e 5744 d8bc 78ac 9b3c 108c 4fbc
000000c0: bdd3 433e f1fc e23b 2da2 4bbc 661e 143d
000000d0: d366 8ebd dead c5bd 57af 1cbe 11ab b4bd
000000e0: 942c 58bc de61 30bc c456 eabc a2b7 d5bc
000000f0: 1080 96bd a079 c4bc 0497 21be 612d ffbc
00000100: 9f1e 48bc 1293 423d 8d1d 4e3d 6663 37be
00000110: 7af1 a53c 4a64 af3d 1a98 2f3c dc2d 223c
00000120: da15 b8bd 53dd 5dbd 3988 91bd b1c5 95bc
00000130: 7479 81bd 853d e4bd a5b8 06be c04f 86be
00000140: 840b 09bd 85e9 62be 5fe8 c0bc 0f27 09be
00000150: f341 44be 0117 1abe f20f 65bd 2a62 ca3c
00000160: 7d5e 4abb 1f9d 84bc af97 92bd 2cd9 dcbc
00000170: cdb6 1a3d e341 dabd dc68 1fbd 8456 da3d
00000180: 52de 4abb 24c5 edbd a436 3dbe 445d 71bd
00000190: 17a4 4b3c fc24 2f3e 553e 233e 6d8d 4b3d
000001a0: 83c9 1abd decc 2e3e e417 b53c c8dd 3bbd
000001b0: c5f0 87bd b0fd 0dbd 75db b23d d413 d4bd
000001c0: 004b a53d 31e4 083e 812c 0cbd fb67 abbd
000001d0: 4472 babc f1de 56bd 2d53 d2bd ef1c ebbd
000001e0: c805 eebd cdeb 4a3b e4e6 783d 0451 01be
000001f0: b2e8 043e 1f16 43be 89e0 e53c e59f c03d
00000200: 6ee0 b23c eda8 5cbd bfc4 d2bd f8bc 05bd
00000210: a350 fe3c 2223 abbd 0c86 32bd f222 99bc
00000220: 7e32 133e c466 5f3d 27d4 9d3c 049e 33be
00000230: 97de b8bc 5103 c7bd ab8e 143c 5b15 8bbd
00000240: 71c5 313e dd13 d3bb bf2a e2bd 1fc5 d63d
00000250: 77df 41bc b9f3 05be 89dc 463d d558 893c
00000260: ad96 46bc df8f 1b3e 88b0 a53d fe08 873d
00000270: 2821 44be 36a8 133d 19fb 673d eebb 3abe
00000280: c168 483d 9023 db3c 5bd3 fcbd 16eb f23d
00000290: 653a 18be c166 0b3d 2fb0 013e 1fa8 1fbe
000002a0: bebf b8bd 3903 8f3d 1faf 1bbd c4d9 b8bc
000002b0: 6a0a 58bd 9db8 143e 6681 ff3c 339a a7bd
000002c0: 6cee 0b3e 751e 0cbd 05f3 8f3d 8bd4 6cbe
000002d0: 6dd7 5c3e 9096 8bbd 419f b73b 0e8e 613e
000002e0: 9ac0 8abd 11a6 cdbd c35b 61bb b322 d6bb
000002f0: 2d1f 43bd f90d 90bc 8fe2 b43c 908d 8c3d
00000300: 0f54 073e 4049 b8bd f957 f7bd 9a4c 123d
00000310: cd4e 60bd b588 103d c395 90bd e716 96bd
00000320: 571b 0a3c 70a6 533e 37a0 8f3d 5d91 f33d
00000330: 57d1 3dbe 4ec1 043c c619 5b3d aae4 43bd
00000340: 4aa7 163e d20b 073e a97a 25bd e5a3 953d
00000350: a7e8 c1bd d8b3 163e 3aab 66bd 83c9 4a3d
00000360: 29f4 d3bc 62bd 7c3b daaf 0ebd 2514 77bd
00000370: b345 9bbd 3c3c af3c 0f34 babd 2043 febc
00000380: b3ce fbbd 956b 8abd df0c 1a3d e7ed 10be
00000390: 025b 30bc e150 bf3d 91f2 103e ab6a 863e
000003a0: 0e7c e0bc e018 b83c 03f5 ed3d 203f 1fbe
000003b0: 0d1c 05bc 8e7c 243e 439e b53c 2855 8dbc
000003c0: d9bf f6bd d6e7 fb3d 6c14 58bd 82c7 a43d
000003d0: 13e1 23be 6efe 9bbd a746 d23d cea0 4b3b
000003e0: b3e1 dc3d bb8b f0bc 4afa a9bb e539 4d3c
000003f0: d570 fbbd 5328 743d f2f0 743c eaab 113e
0.002329999 -0.13525373 0.093757495 -0.0022906547 -0.004132959 0.051135927 -0.19449897 0.15101723
0.026692731 0.01582676 0.02489866 0.12312338 0.010090308 -0.044019535 0.021829816 -0.027435396
-0.04809292 -0.10431361 -0.029789776 0.04816092 0.03704511 0.078206584 0.037751783 0.006008823
0.023125125 0.05842928 -0.07917359 0.0022111342 -0.023097403 0.031093888 -0.06593912 -0.031470116
-0.12264761 -0.13071208 -0.22777869 0.1230641 -0.028711412 -0.060045045 -0.08873655 0.23494981
-0.06944031 0.05811136 0.062133703 -0.022556188 0.21535218 -0.026399774 0.019003138 -0.012667671
0.1912374 0.0069271256 -0.012428802 0.036161803 -0.06953206 -0.09652303 -0.15301262 -0.08821691
-0.013194222 -0.010765521 -0.028605826 -0.02608854 -0.07348645 -0.023983777 -0.15780264 -0.031149568
-0.012214332 0.04750354 0.05032115 -0.17909011 0.020256747 0.085640505 0.010717416 0.009898629
-0.08988543 -0.05416615 -0.071060605 -0.018282743 -0.063219935 -0.111445464 -0.13156374 -0.2623272
-0.033458248 -0.22159393 -0.023548303 -0.13393806 -0.19165783 -0.15047838 -0.05592341 0.024705011
-0.0030879073 -0.016188202 -0.071578376 -0.026959024 0.03777199 -0.10657098 -0.03891836 0.10661033
-0.0030955267 -0.11609867 -0.18477875 -0.058926836 0.012429259 0.17103952 0.15941747 0.04969542
-0.037789833 0.17070338 0.022106119 -0.045865804 -0.0663772 -0.034665763 0.08733264 -0.103553444
0.08070946 0.13368298 -0.03422213 -0.08369442 -0.022759564 -0.052458707 -0.10269771 -0.11480128
-0.116221964 0.0030963302 0.06076707 -0.12628561 0.12979391 -0.19051407 0.028061168 0.094054975
0.021835532 -0.053872038 -0.102914326 -0.032650918 0.03104431 -0.083563104 -0.04358487 -0.018693421
0.1437473 0.054541364 0.019266201 -0.17540747 -0.022567077 -0.097174294 0.009067218 -0.067911826
0.17360474 -0.006441577 -0.110433094 0.104868166 -0.011833063 -0.13081254 0.048550162 0.016765991
-0.012120885 0.15191601 0.08090311 0.06593512 -0.19153273 0.03604909 0.05663595 -0.18235752
0.048928026 0.026750356 -0.12345 0.11861245 -0.14866026 0.03403354 0.12664865 -0.15591477
-0.09020947 0.069830365 -0.038008805 -0.022564776 -0.052744307 0.1452355 0.031189632 -0.08183708
0.1366517 -0.034208734 0.07028774 -0.23127954 0.21566553 -0.06815827 0.0056037013 0.22026846
-0.06775017 -0.1004144 -0.003438697 -0.006534898 -0.047637153 -0.017584788 0.022080688 0.068629384
0.1321566 -0.08998346 -0.12077326 0.035717584 -0.05476265 0.035286624 -0.07059815 -0.07328587
0.00842937 0.2066896 0.070129804 0.1189296 -0.18536888 0.008102728 0.053491376 -0.047825493
0.14712253 0.13188103 -0.04040018 0.07306651 -0.09468203 0.14717042 -0.056315638 0.049508583
-0.02587326 0.003856503 -0.034835674 -0.060321946 -0.075816534 0.021391027 -0.09091961 -0.031037867
-0.12295284 -0.06758801 0.03760993 -0.14153253 -0.010763885 0.09341598 0.14155032 0.26253256
-0.027402904 0.022472799 0.11618998 -0.15551424 -0.008124364 0.16063139 0.022170192 -0.01725252
-0.12048311 0.123000786 -0.05275385 0.080458656 -0.16003828 -0.07616888 0.10267382 0.003107119
0.10785236 -0.029363504 -0.0051873075 0.01252601 -0.122773804 0.05960877 0.014950024 0.14225736

blocks.0.sa.heads.1.tril f4 [16, 16]
00000000: 0000 803f 0000 0000 0000 0000 0000 0000
00000010: 0000 0000 0000 0000 0000 0000 0000 0000
00000020: 0000 0000 0000 0000 0000 0000 0000 0000
00000030: 0000 0000 0000 0000 0000 0000 0000 0000
00000040: 0000 803f 0000 803f 0000 0000 0000 0000
00000050: 0000 0000 0000 0000 0000 0000 0000 0000
00000060: 0000 0000 0000 0000 0000 0000 0000 0000
00000070: 0000 0000 0000 0000 0000 0000 0000 0000
00000080: 0000 803f 0000 803f 0000 803f 0000 0000
00000090: 0000 0000 0000 0000 0000 0000 0000 0000
000000a0: 0000 0000 0000 0000 0000 0000 0000 0000
000000b0: 0000 0000 0000 0000 0000 0000 0000 0000
000000c0: 0000 803f 0000 803f 0000 803f 0000 803f
000000d0: 0000 0000 0000 0000 0000 0000 0000 0000
000000e0: 0000 0000 0000 0000 0000 0000 0000 0000
000000f0: 0000 0000 0000 0000 0000 0000 0000 0000
00000100: 0000 803f 0000 803f 0000 803f 0000 803f
00000110: 0000 803f 0000 0000 0000 0000 0000 0000
00000120: 0000 0000 0000 0000 0000 0000 0000 0000
00000130: 0000 0000 0000 0000 0000 0000 0000 0000
00000140: 0000 803f 0000 803f 0000 803f 0000 803f
00000150: 0000 803f 0000 803f 0000 0000 0000 0000
00000160: 0000 0000 0000 0000 0000 0000 0000 0000
00000170: 0000 0000 0000 0000 0000 0000 0000 0000
00000180: 0000 803f 0000 803f 0000 803f 0000 803f
00000190: 0000 803f 0000 803f 0000 803f 0000 0000
000001a0: 0000 0000 0000 0000 0000 0000 0000 0000
000001b0: 0000 0000 0000 0000 0000 0000 0000 0000
000001c0: 0000 803f 0000 803f 0000 803f 0000 803f
000001d0: 0000 803f 0000 803f 0000 803f 0000 803f
000001e0: 0000 0000 0000 0000 0000 0000 0000 0000
000001f0: 0000 0000 0000 0000 0000 0000 0000 0000
00000200: 0000 803f 0000 803f 0000 803f 0000 803f
00000210: 0000 803f 0000 803f 0000 803f 0000 803f
00000220: 0000 803f 0000 0000 0000 0000 0000 0000
00000230: 0000 0000 0000 0000 0000 0000 0000 0000
00000240: 0000 803f 0000 803f 0000 803f 0000 803f
00000250: 0000 803f 0000 803f 0000 803f 0000 803f
00000260: 0000 803f 0000 803f 0000 0000 0000 0000
00000270: 0000 0000 0000 0000 0000 0000 0000 0000
00000280: 0000 803f 0000 803f 0000 803f 0000 803f
00000290: 0000 803f 0000 803f 0000 803f 0000 803f
000002a0: 0000 803f 0000 803f 0000 803f 0000 0000
000002b0: 0000 0000 0000 0000 0000 0000 0000 0000
000002c0: 0000 803f 0000 803f 0000 803f 0000 803f
000002d0: 0000 803f 0000 803f 0000 803f 0000 803f
000002e0: 0000 803f 0000 803f 0000 803f 0000 803f
000002f0: 0000 0000 0000 0000 0000 0000 0000 0000
00000300: 0000 803f 0000 803f 0000 803f 0000 803f
00000310: 0000 803f 0000 803f 0000 803f 0000 803f
00000320: 0000 803f 0000 803f 0000 803f 0000 803f
00000330: 0000 803f 0000 0000 0000 0000 0000 0000
00000340: 0000 803f 0000 803f 0000 803f 0000 803f
00000350: 0000 803f 0000 803f 0000 803f 0000 803f
00000360: 0000 803f 0000 803f 0000 803f 0000 803f
00000370: 0000 803f 0000 803f 0000 0000 0000 0000
00000380: 0000 803f 0000 803f 0000 803f 0000 803f
00000390: 0000 803f 0000 803f 0000 803f 0000 803f
000003a0: 0000 803f 0000 803f 0000 803f 0000 803f
000003b0: 0000 803f 0000 803f 0000 803f 0000 0000
000003c0: 0000 803f 0000 803f 0000 803f 0000 803f
000003d0: 0000 803f 0000 803f 0000 803f 0000 803f
000003e0: 0000 803f 0000 803f 0000 803f 0000 803f
000003f0: 0000 803f 0000 803f 0000 803f 0000 803f
1.0 0.0 0.0 0.0 0.0 0.0 0.0 0.0
0.0 0.0 0.0 0.0 0.0 0.0 0.0 0.0
1.0 1.0 0.0 0.0 0.0 0.0 0.0 0.0
0.0 0.0 0.0 0.0 0.0 0.0 0.0 0.0
1.0 1.0 1.0 0.0 0.0 0.0 0.0 0.0
0.0 0.0 0.0 0.0 0.0 0.0 0.0 0.0
1.0 1.0 1.0 1.0 0.0 0.0 0.0 0.0
0.0 0.0 0.0 0.0 0.0 0.0 0.0 0.0
1.0 1.0 1.0 1.0 1.0 0.0 0.0 0.0
0.0 0.0 0.0 0.0 0.0 0.0 0.0 0.0
1.0 1.0 1.0 1.0 1.0 1.0 0.0 0.0
0.0 0.0 0.0 0.0 0.0 0.0 0.0 0.0
1.0 1.0 1.0 1.0 1.0 1.0 1.0 0.0
0.0 0.0 0.0 0.0 0.0 0.0 0.0 0.0
1.0 1.0 1.0 1.0 1.0 1.0 1.0 1.0
0.0 0.0 0.0 0.0 0.0 0.0 0.0 0.0
1.0 1.0 1.0 1.0 1.0 1.0 1.0 1.0
1.0 0.0 0.0 0.0 0.0 0.0 0.0 0.0
1.0 1.0 1.0 1.0 1.0 1.0 1.0 1.0
1.0 1.0 0.0 0.0 0.0 0.0 0.0 0.0
1.0 1.0 1.0 1.0 1.0 1.0 1.0 1.0
1.0 1.0 1.0 0.0 0.0 0.0 0.0 0.0
1.0 1.0 1.0 1.0 1.0 1.0 1.0 1.0
1.0 1.0 1.0 1.0 0.0 0.0 0.0 0.0
1.0 1.0 1.0 1.0 1.0 1.0 1.0 1.0
1.0 1.0 1.0 1.0 1.0 0.0 0.0 0.0
1.0 1.0 1.0 1.0 1.0 1.0 1.0 1.0
1.0 1.0 1.0 1.0 1.0 1.0 0.0 0.0
1.0 1.0 1.0 1.0 1.0 1.0 1.0 1.0
1.0 1.0 1.0 1.0 1.0 1.0 1.0 0.0
1.0 1.0 1.0 1.0 1.0 1.0 1.0 1.0
1.0 1.0 1.0 1.0 1.0 1.0 1.0 1.0

blocks.0.sa.heads.1.key.weight f4 [9, 36]
00000000: c500 11be a86a 98bc c1e4 103d e6f2 e5bd
00000010: 2d31 27be 37f4 0d3d b644 f63d 6d91 2f3e
00000020: dcbd c0be 2b7e 3a3d 48c7 463d 7524 e53d
00000030: e477 8a3e a3c9 75be 08b9 2bbd e389 42be
00000040: a4de 8abe 7d59 8cbe 6648 e4bd d0b2 0b3e
00000050: 3ad0 d6bd dcbb a3bd 376e b33d 4008 8ebe
00000060: 00f6 b93d 3e0c 7f3d 851a 0bbe 6d00 4a3e
00000070: 195c 81bd 8c9f d63d 374b 85bd 5a07 173e
00000080: ec9a 153e cf6f f93d cd9a ff3d 1360 7bbc
00000090: ed0e 423d aec6 f9bd 48db 4abd a814 77be
000000a0: f907 7bbd 20f5 4ebd fa62 503e 0ec0 32bb
000000b0: c6d5 2abe 7578 d4bb 1e00 f1bd 2c3a 8e3d
000000c0: 7df3 6b3e d03a 17be 64dc a43d 632c bb3d
000000d0: 8025 7abe 6d62 06be 1169 33be 0969 2f3e
000000e0: 3f19 2abc 14ec ac3c ac0e 573c 4cee 92bc
000000f0: e6f6 b63e bf35 83be 9f35 cc3d 195a ba3e
00000100: 36b8 b93e a4f0 21bd 6161 a13d a211 0e3e
00000110: 34c0 873b 6f81 623d a14e 8abb a219 4c3e
00000120: 825b 273c 610a 603e 77d9 8bbd abbc 733e
00000130: 010a 46be d80c bcbd eebd e83c 9e3a 5d3d
00000140: 6051 f5bc 312e 353d 21c2 24be e2e7 6b3e
00000150: 3c73 0bbe ac85 87bd f3bc ee3d 1426 d8bd
00000160: f1e6 123e 2238 283c cd48 543e 7d07 46bd
00000170: b4a0 4ebe cbb7 c83e 55ee 53bd 1275 d93d
00000180: 839a 583d 96e3 0dbe 6539 3a3d fa8b 46be
00000190: b224 1bbd 4b7a 0f3e ebfb 833e 35d4 4a3d
000001a0: 68b0 1d3d d389 35be ba74 b63e 9f58 b4be
000001b0: 1966 3a3e d305 423e e985 8b3e 3c30 fd3d
000001c0: 1080 f0bd eb48 3f3e aa0c 883b d0f2 873c
000001d0: 3908 b3bd dacb ddbd fc47 2abd f0a9 34be
000001e0: 7549 bcbd 3b55 6fbe 1ae5 fdbd 2efb 7cbe
000001f0: 8fab fe3c af1d c23d f392 d1bc d29f bbbc
00000200: 3ad7 c5bd 6619 acbd 6add f63d 4ecd 0e3e
00000210: fa8d 4cbe ace3 043e 2f33 273e 4382 1a3d
00000220: 54dc a1be 9221 7a3e 5bd8 303e 3dfb c1bd
00000230: c5f9 babd 80f1 583e f715 9cbc d1a3 19be
00000240: b582 753d b3df 563d b970 5b3e e2cd 34bd
00000250: 6f2f c6be 3bbc bf3d eedc 873d f6a1 15be
00000260: 8be6 31be 7a6b 53bd 585f 393d 71fa 20be
00000270: a213 41bd c023 90bd a130 5fbc f16e 073e
00000280: 2112 b43d c4ad 8dbd 98b1 b93e 11fe a1be
00000290: c3b4 50be 66f8 e2bc be9d 6b3e 0fce a23d
000002a0: 449a 85be 5ed8 053e ce8e 9ebd 0944 c1be
000002b0: 2587 56be 3560 853e 630f 883e 4455 d8bd
000002c0: 94f9 7cbe 7d98 db3e 62a5 503d 7cc2 643e
000002d0: 2d2c 27be 454f 6f3c 03f1 14be 416d 003e
000002e0: 146a 923e e90a 063d cd92 0bbe 38e9 133e
000002f0: 814e d8bd be9d 533d bcb3 783c 3274 84bd
00000300: 4914 3e3e cd70 073e cff9 743e ffcc 2e3e
00000310: a34f 7dbe 3978 903d 693c 12be f7fc 9b3d
00000320: cbf2 b4bd 13f5 e7bd 6dcf c93c 5ce3 afbd
00000330: 253a 873e 9bdc 6cbe 81d0 433e 7653 e53d
00000340: f05c a13e 036b ad3d f0b5 fabe b65c 0fbe
00000350: 682f 283e 8dd2 4cbe ee77 94bd 00c9 303c
00000360: 8d56 d3be 01d5 813e 7b3f 6d3d cb32 103e
00000370: c078 3fbe f746 883d b035 483e f12a 323e
00000380: d4b7 c6bd 99c4 473e 7709 aa3e 1ef1 bbbd
00000390: 96b1 9d3d 861d 8abe fa02 a7bd d22f 56be
000003a0: 2a80 dd3e 7c24 13be 97b6 07be 1489 e83c
000003b0: 22eb 553d 905c 48be 75f1 833e 06a4 ca3e
000003c0: 5b69 833d 234f 013e 9f3b 0c3e f953 41be
000003d0: c545 40be 1b55 edbc d7f5 a1bc 96b1 013e
000003e0: f518 d43e 1ad5 a6bd 3c8e bcbc e145 613d
000003f0: 3085 31be b1f0 a73c e4a0 5a3c 5f92 743e
-0.1416045 -0.018605545 0.035374407 -0.1122797 -0.16327353 0.03465673 0.12024824 0.1714532
-0.3764485 0.04553048 0.048529893 0.11188594 0.27044594 -0.240027 -0.041924506 -0.18997912
-0.27122986 -0.27412024 -0.111466214 0.1364243 -0.10488935 -0.07994816 0.08761256 -0.2774067
0.09080124 0.062267534 -0.13584335 0.19726725 -0.06316394 0.1047965 -0.06508487 0.14748898
0.1460988 0.12179529 0.12480698 -0.01534273 0.047377516 -0.12196098 -0.04952553 -0.24128973
-0.0612869 -0.05052674 0.20350257 -0.0027275118 -0.1668311 -0.006484086 -0.117676005 0.06944689
0.23042102 -0.14768529 0.08049849 0.091393255 -0.24428368 -0.13123484 -0.17520548 0.17129911
-0.010381996 0.021108665 0.013126057 -0.017935894 0.35735244 -0.25626943 0.09971165 0.36396864
0.36273354 -0.039536133 0.07879902 0.13873914 0.0041427854 0.05529922 -0.004220799 0.19931653
0.010214688 0.21878959 -0.068285875 0.2380244 -0.19339754 -0.09182137 0.028410878 0.05401098
-0.02994603 0.044233505 -0.1608968 0.23037675 -0.13618177 -0.06617293 0.11657133 -0.10554138
0.1434591 0.010267289 0.20730896 -0.048346985 -0.20178491 0.39202723 -0.051740963 0.106180325
0.05288173 -0.13856348 0.045464892 -0.19389334 -0.037876792 0.14011495 0.25778136 0.049518783
0.038498312 -0.17728357 0.3563593 -0.35223863 0.1820301 0.18947534 0.27250603 0.123627156
-0.11743176 0.1868016 0.0041519003 0.016595274 -0.08741803 -0.10829897 -0.041572556 -0.17642951
-0.09193698 -0.23372357 -0.12397213 -0.24705192 0.031087665 0.09478318 -0.025582766 -0.022903357
-0.09660192 -0.08403282 0.1205395 0.13945505 -0.19976035 0.12977475 0.16328119 0.037721884
-0.3161341 0.24426869 0.17270033 -0.09471748 -0.09129671 0.21185875 -0.019053442 -0.15003897
0.059939105 0.05245943 0.21429719 -0.044141658 -0.38708064 0.09362074 0.06633936 -0.14612564
-0.17373101 -0.05161617 0.045256943 -0.15720536 -0.047137864 -0.07038069 -0.013622434 0.13225915
0.0879252 -0.06917909 0.36268306 -0.3163915 -0.20381455 -0.027706336 0.23009393 0.07949459
-0.26094258 0.13070819 -0.077420816 -0.3774722 -0.20949991 0.26049963 0.2657424 -0.10563138
-0.24704581 0.42889777 0.05093897 0.22339815 -0.16325445 0.014606302 -0.14545064 0.12541677
0.28596556 0.03272525 -0.13630219 0.14444435 -0.105618484 0.051664107 0.015179571 -0.06467475
0.18562426 0.13226624 0.2392342 0.17070387 -0.2473741 0.07054181 -0.14280857 0.076166086
-0.088353716 -0.11326041 0.024635041 -0.08588287 0.26411548 -0.2313103 0.19122507 0.111975595
0.31516218 0.084676765 -0.48966932 -0.1400021 0.16424334 -0.20002194 -0.07249437 0.01079011
-0.4127697 0.25357822 0.057921868 0.14081876 -0.18698406 0.066541605 0.1955173 0.17399193
-0.09703031 0.1950859 0.33210346 -0.09176849 0.076998875 -0.2697565 -0.081548646 -0.2091668
0.43261844 -0.14369386 -0.13253246 0.028385676 0.052226193 -0.1956656 0.25770155 0.39578265
0.06416579 0.12627845 0.13694619 -0.1887969 -0.18776615 -0.028971246 -0.019770546 0.126654
0.4142529 -0.08146115 -0.023017041 0.054998282 -0.17335963 0.020500513 0.013344023 0.23883961
